tests_data/basic/pytorch/example.pth (torch, 251320 bytes, 10 tensors)

conv1.weight f4 [6, 3, 5, 5]
0	0xbce43a1d	-0.027859742
1	0xbdea0eed	-0.11428628
2	0xbd520a0f	-0.051279124
3	0x3caf2acb	0.02138271
4	0xbd8f7c1f	-0.07006096
5	0xbde0c909	-0.109758444
6	0xbc947cf1	-0.018125983
7	0xbd9bfbb7	-0.0761637
8	0xbd82a4a1	-0.06379057
9	0xbdbfadc9	-0.09359319
10	0xbd984214	-0.074344784
11	0xbddb70c0	-0.10714865
12	0x3da06d9c	0.07833406
13	0xbcc247b9	-0.02371584
14	0xbcaee523	-0.021349495
15	0x3d129464	0.035786048
16	0x3caba6e8	0.02095361
17	0xbd8aac44	-0.06771138
18	0xbda1ec13	-0.07906356
19	0x3da13666	0.07871704
20	0xbd617aa1	-0.05504859
21	0x3cc24a17	0.02371697
22	0x3dd1144c	0.102089494
23	0x3ce4e819	0.027942704
24	0x3cc09a0f	0.02351096
25	0x3ce09f40	0.027419686
26	0x3cd7c853	0.02634064
27	0xbcdb5b6d	-0.026776994
28	0x3cfffb5d	0.031247789
29	0x3d7c735c	0.061633453
30	0x3cb7d9f8	0.022442803
31	0xbd7655c3	-0.060140382
32	0x3c2b98e8	0.010473467
33	0xbdb238b7	-0.08702224
34	0x3d5c9e5e	0.05386197
35	0xbdd0c3ca	-0.10193594
36	0xbca19af5	-0.01972721
37	0xbdd1f012	-0.10250868
38	0x3dae3d2a	0.0850776
39	0x3d1fdd63	0.03902949
40	0xbda9fbf3	-0.083000086
41	0x3d011dcf	0.03152257
42	0x3d7c9d47	0.06167343
43	0xbcfc8951	-0.030827196
44	0xbd235e3e	-0.0398848
45	0xbd8b534e	-0.068029985
46	0x3dd3ca2b	0.10341295
47	0xbd12811f	-0.03576767
48	0xbdc2c1fc	-0.09509656
49	0xbd30c0dc	-0.043152675
50	0xbbbf5f85	-0.0058402442
51	0x3dbbcf98	0.09170455
52	0x3c1fab03	0.009745362
53	0xbc08ffe4	-0.00836179
54	0xbda0a793	-0.07844462
55	0x3dcee16c	0.101015896
56	0x3d0fba67	0.035089877
57	0x3c2c75eb	0.010526161
58	0xbdac7ad1	-0.08421863
59	0xbce0f056	-0.027458351
60	0x3dcc022b	0.09961351
61	0x3bc8bf37	0.00612631
62	0xbc7b88be	-0.015352426
63	0x3d57ce07	0.052686717
64	0xbd45df62	-0.048308738
65	0x3d79d7c2	0.06099678
66	0xbd0c0eb1	-0.0341937
67	0x3d9d8aae	0.07692467
68	0x3cb03e13	0.021513974
69	0x3d307851	0.043083493
70	0x3ae49beb	0.0017441487
71	0x3d4c7f13	0.049925875
72	0xbd6c2642	-0.057653673
73	0x3d382fc3	0.044967424
74	0xbdc3f0b8	-0.09567398
75	0x3de2c45e	0.1107261
76	0x3cd250ea	0.025673348
77	0xbd0d4bd1	-0.034496132
78	0xbd7f0788	-0.06226304
79	0x3da13f62	0.078734174
80	0x3d73bb4c	0.059504792
81	0x3d6758d2	0.05648119
82	0xbdcba7a1	-0.09944082
83	0xbbd7b770	-0.0065831468
84	0x3c010eb2	0.007877039
85	0xbd241f4f	-0.04006892
86	0x3d4c3435	0.049854476
87	0x3babf83a	0.005248097
88	0x3d3aec9c	0.045635805
89	0xbd70e1f5	-0.05880924
90	0x3d51257c	0.05106114
91	0xbc95bd0e	-0.018278625
92	0x3db2ca7d	0.08730028
93	0xbda8952c	-0.08231577
94	0x3dcac4c5	0.09900812
95	0x3bc24974	0.0059291665
96	0x3d95224e	0.07281934
97	0x3dde7368	0.10861856
98	0x3d87fa5a	0.06639548
99	0xbddfdbfd	-0.10930631
100	0xbd22344d	-0.03960066
101	0x3cfdf84f	0.031002192
102	0x3cbb28d3	0.022846615
103	0x3d926b66	0.07149391
104	0xbd3392cb	-0.043841165
105	0xbd1f65f2	-0.038915582
106	0x3d5fc609	0.05463222
107	0x3dde5b1d	0.10857222
108	0x3d35743b	0.0443003
109	0xbd044955	-0.032296497
110	0x3dc1160d	0.09428034
111	0x3d697630	0.056997478
112	0xbdbc3733	-0.09190216
113	0x3de9c833	0.11415138
114	0x3de43af2	0.111440554
115	0x3db4e87f	0.088334076
116	0xbddf7391	-0.109107144
117	0x3d6d5c92	0.05794961
118	0xbd8c9d5b	-0.06865951
119	0xbdd401fa	-0.103519395
120	0xbd39d9b0	-0.04537362
121	0x3d8f95ad	0.0701097
122	0x3d880266	0.066410825
123	0xbd6d8528	-0.057988316
124	0x3c2edf56	0.010673365
125	0x3d4c1e3a	0.049833514
126	0xbdbd52af	-0.09244286
127	0xbdcb4284	-0.09924796
128	0x3d4b5e75	0.049650628
129	0x3da7af3e	0.08187722
130	0x3db00a37	0.08595698
131	0x3c4ad175	0.01237904
132	0xbd5f1e67	-0.054472353
133	0xbdac2918	-0.084062755
134	0xbd1a70a5	-0.037705082
135	0x3c9a139e	0.018808182
136	0xbdeb03ee	-0.11475359
137	0xbce94710	-0.028476268
138	0x3d6d194b	0.05788545
139	0x3c0e95ee	0.008702738
140	0xbd5c5df6	-0.053800546
141	0x3dbe6a51	0.09297622
142	0xbcaa9d3d	-0.02082693
143	0x3d10415f	0.035218593
144	0xbb08893f	-0.0020833758
145	0x3da33949	0.07969911
146	0x3d32748f	0.04356819
147	0x3da5a09e	0.08087276
148	0xbdd3feac	-0.10351309
149	0x3d6af87e	0.057365887
150	0x3d345d75	0.04403444
151	0x3d880443	0.06641438
152	0xbd319a43	-0.043360006
153	0x3bbcc32d	0.0057605715
154	0x3da2e473	0.079537295
155	0xbd6b304b	-0.057419103
156	0x3daa3df6	0.08312599
157	0xbddc627e	-0.107609734
158	0x3de20f4c	0.11038074
159	0x3dc6c47a	0.09705444
160	0x3db62d5d	0.08895371
161	0x3d6f5500	0.05843067
162	0xbd6190df	-0.0550698
163	0x3dd2cfa8	0.102935135
164	0xbcb1233a	-0.021623243
165	0xbcaf63b1	-0.021409841
166	0x3dc4156c	0.095743984
167	0x3d8b2405	0.067939796
168	0xbd344bf3	-0.044017743
169	0x3d11833f	0.035525557
170	0xbdc76603	-0.09736254
171	0x3bfc9d94	0.0077092145
172	0xbd70d146	-0.05879333
173	0x3daeb44f	0.08530485
174	0xbdbd3d0e	-0.09240161
175	0xbd6d7da3	-0.057981145
176	0xbdc17bff	-0.094474785
177	0xbd7e5fb2	-0.06210298
178	0xbcd97bca	-0.026548285
179	0xbc561dec	-0.013068657
180	0x3deb69ca	0.11494787
181	0xbd4d7017	-0.050155725
182	0xbd5f5e06	-0.054533027
183	0xbd0f3067	-0.03495827
184	0x3dc23038	0.09481853
185	0xbdad4a99	-0.08461494
186	0x3dd7ef05	0.10543636
187	0x3dd83a24	0.105579644
188	0xbcef288f	-0.029194145
189	0xbdc7caf8	-0.0975551
190	0x3db159c0	0.086596966
191	0xbc652398	-0.013985537
192	0xbc181db3	-0.009284425
193	0xbcd84b2e	-0.026403036
194	0xbd89c3ae	-0.06726776
195	0x3d193c23	0.037410866
196	0xbcb1e778	-0.021716818
197	0xbdcafb84	-0.09911254
198	0x3dd765df	0.10517477
199	0x3d8bd2ea	0.06827338
200	0x3d8067ad	0.062697746
201	0xbd4703d0	-0.04858762
202	0x3da5f266	0.081028745
203	0x3d6bdef5	0.057585675
204	0x3d8ee466	0.06977157
205	0x3da66275	0.08124248
206	0xbda6c5ac	-0.08143172
207	0x3da75b65	0.08171729
208	0x3de5173f	0.111860745
209	0xbdeb409e	-0.11486934
210	0x3b1cd3c8	0.0023929942
211	0x3de0b78a	0.10972507
212	0xbd492938	-0.049111575
213	0x3c9581a5	0.018250296
214	0x3da2a3d6	0.079414055
215	0x3ca29de6	0.019850682
216	0xbc674b23	-0.014117035
217	0xbd629efc	-0.0553274
218	0x3de6f494	0.11277118
219	0x3d73be2b	0.05950753
220	0xbaef3b02	-0.0018251839
221	0x3d5201b4	0.051271155
222	0x3dcf25a3	0.101146005
223	0xbddb3d63	-0.10705068
224	0xbda9a4ec	-0.082834095
225	0xbd87a843	-0.0662389
226	0x3d665804	0.056236282
227	0xbda46c49	-0.08028466
228	0xbc7b3dbe	-0.015334545
229	0xbd82b328	-0.063818276
230	0x3d9e19ec	0.07719788
231	0x3d060064	0.032715216
232	0x3cba417b	0.022736302
233	0x3da0219c	0.078189105
234	0x3b29d87b	0.0025916386
235	0xbc748a8d	-0.014925611
236	0xbd9c3245	-0.07626776
237	0xbd9a1b04	-0.07524684
238	0x3dc05ff6	0.09393303
239	0x3d31d2a7	0.043413784
240	0x3dd991fc	0.106235474
241	0xbde7b953	-0.11314645
242	0x3c6f2b6b	0.014597754
243	0x3d00aca6	0.03141465
244	0xbcea49c6	-0.028599631
245	0x3dde8caa	0.10866673
246	0x3dc3faaa	0.09569295
247	0x3ccd4166	0.025055598
248	0x3c70b309	0.014691123
249	0x3ddafd6b	0.10692867
250	0x3c4035b7	0.011731557
251	0xbd0193c6	-0.03163507
252	0x3ddc5e39	0.10760159
253	0xbda3cca2	-0.07998015
254	0xbd8847cc	-0.06654319
255	0x3dba124a	0.090855196

conv1.bias f4 [6]
0	0xbdb098b8	-0.08622879
1	0x3dad9d4c	0.084772676
2	0x3c59db3a	0.013296897
3	0xbcacb719	-0.021083402
4	0x3dba8978	0.09108251
5	0x3b9d9e8c	0.00481016

conv2.weight f4 [16, 6, 5, 5]
0	0xbd76c1c5	-0.060243387
1	0x3b30ce54	0.002697845
2	0x3d64791a	0.055779554
3	0x3d2cd989	0.042199645
4	0xbd180a4d	-0.0371192
5	0x3d3bd936	0.045861445
6	0xbd4d9609	-0.050191913
7	0x3d9eb8d6	0.077500984
8	0xbd8cf577	-0.06882756
9	0x3d9eaef5	0.07748214
10	0xbd740461	-0.05957449
11	0x3c925265	0.017861554
12	0xbd8b01bc	-0.0678744
13	0xbd8be8b5	-0.06831495
14	0x3d924ea6	0.07143907
15	0xbd246078	-0.040131062
16	0xbad65925	-0.0016353471
17	0x3da2d0a4	0.07949951
18	0xbc469e4e	-0.012122704
19	0xbd3899ac	-0.045068428
20	0xbda30e84	-0.07961753
21	0xbd7f9826	-0.06240096
22	0xbbc63363	-0.0060486062
23	0x3d8cec2f	0.06880986
24	0xbcf5785b	-0.029964617
25	0xbd7cf385	-0.061755676
26	0xbcbfd3f2	-0.023416493
27	0x3c6548ad	0.013994378
28	0xbc74c686	-0.01493991
29	0xbd769033	-0.060196113
30	0x3ce8e757	0.028430624
31	0x3d2f69ce	0.042825513
32	0x3d2ee947	0.04270294
33	0xbd32abd5	-0.043620903
34	0x3ce93b85	0.028470764
35	0xbd869456	-0.065712616
36	0x3d25a94b	0.040444653
37	0x3c1f45a3	0.0097211925
38	0xbc868503	-0.016420847
39	0x3d92a5f0	0.07160556
40	0x3c16f0e8	0.00921271
41	0xbd2cedf5	-0.04221912
42	0xbd7f86a0	-0.062384248
43	0xbc426b6e	-0.011866434
44	0x3d63abb6	0.05558368
45	0x3d000773	0.031257104
46	0x3c6d95d0	0.01450105
47	0x3d118d5d	0.035535205
48	0xbd004711	-0.031317774
49	0x3c202861	0.009775252
50	0x3d8ded55	0.06930033
51	0x3d54887a	0.051887967
52	0x3a467a42	0.00075713184
53	0x3d89b8ec	0.06724724
54	0xbd7543b1	-0.05987901
55	0x3d1adb9b	0.03780709
56	0xbc19c358	-0.0093849525
57	0x3bfd2941	0.007725865
58	0xbc331a1f	-0.010931521
59	0xbd800a29	-0.06251938
60	0x3d077d4c	0.033078477
61	0xbd4b9ef3	-0.049712133
62	0xbbd04911	-0.0063563664
63	0x3d3466b4	0.044043258
64	0xbd91afe8	-0.071136296
65	0x3d7856f2	0.060629793
66	0x3d706e23	0.058698785
67	0xbcd2ed79	-0.025748001
68	0x3c1032f4	0.008801211
69	0xb7461503	-1.1806612e-05
70	0xb93874f0	-0.0001759117
71	0x3ca7c131	0.020477863
72	0x3c078ea8	0.008273758
73	0x3a6c060e	0.0009003588
74	0x3c9b8dbe	0.018988486
75	0x3d69f73b	0.057120543
76	0x3d52a382	0.051425464
77	0xbd261749	-0.04054955
78	0x3ccade3f	0.024764178
79	0xbd63f4e9	-0.055653486
80	0x3d205bd6	0.03915008
81	0xbc3e55d3	-0.011617142
82	0xbd60c0b6	-0.054871283
83	0xbcbbc66c	-0.022921763
84	0x3c79bb71	0.015242443
85	0xbd36d640	-0.04463792
86	0x3d55367e	0.05205392
87	0xbc5ecec8	-0.013599105
88	0xbc3c14b9	-0.01147955
89	0x3d5d0776	0.053962193
90	0x3d01fa74	0.03173299
91	0xbd35577f	-0.044272896
92	0xbd9194d2	-0.07108463
93	0x3d2404dc	0.040043697
94	0xbda14b89	-0.07875735
95	0x3d02bbe6	0.031917475
96	0xbd2d213e	-0.04226803
97	0x3d8581d9	0.06518907
98	0xbbdaf401	-0.0066819196
99	0xbd828bbe	-0.0637431
100	0xbb0bc335	-0.002132607
101	0x3d5963d4	0.05307372
102	0xbd57a3e3	-0.05264653
103	0xbcdb275c	-0.026752166
104	0x3b720c17	0.0036933476
105	0xbd43dcc8	-0.047817975
106	0xbcab0734	-0.020877458
107	0x38d2a2be	0.000100438934
108	0x3d2dac3b	0.04240058
109	0x3ca30cd6	0.019903582
110	0x3d520116	0.051270567
111	0xbcdac9a0	-0.02670747
112	0xbd9c534c	-0.07633075
113	0x3d70efbc	0.05882238
114	0xbce0ffcb	-0.027465722
115	0xbd22cea9	-0.039747868
116	0xbbe33bf4	-0.006934637
117	0x3ca24f44	0.019813187
118	0xbd48d96f	-0.049035486
119	0xbc86bc78	-0.01644729
120	0xbd36be6b	-0.04461519
121	0x3b9eb132	0.0048429007
122	0xbd85a8af	-0.065263145
123	0xbd2cd681	-0.042196754
124	0x3d559c67	0.05215111
125	0xbc5e3a23	-0.013563666
126	0x3ceccd81	0.028906586
127	0x3d09b799	0.033622358
128	0x3d7e35a8	0.06206289
129	0x3cbfc44a	0.023409028
130	0x3b9ede45	0.004848274
131	0xbc362e88	-0.011119492
132	0xbc83611c	-0.016037516
133	0x3ce5a03f	0.028030513
134	0x3c479b6b	0.012183051
135	0x3d617896	0.05504664
136	0x3ccc5429	0.024942474
137	0xbd95339b	-0.072852336
138	0xbce58996	-0.028019708
139	0x3d2e2bf3	0.042522382
140	0x3d95abe1	0.07308174
141	0xbd4ac80f	-0.049507197
142	0xbd9e98f0	-0.07744014
143	0xbd97ae94	-0.07406345
144	0xbc517f60	-0.012786716
145	0x3d1a521b	0.037675958
146	0xbd1f1267	-0.03883591
147	0x3d68be0e	0.056821875
148	0xbcddb9dd	-0.027066166
149	0x3d589ab7	0.052881923
150	0x3c31ee44	0.01086003
151	0x3d8039cd	0.062610246
152	0xbd8d1f0a	-0.06890686
153	0xbcfb9e51	-0.03071514
154	0xbacf9eaa	-0.0015840132
155	0xbcb7b715	-0.022426168
156	0xbd332ec0	-0.043745756
157	0xbd5500a0	-0.05200255
158	0x3d08cb15	0.0333968
159	0x3b473aca	0.0030400031
160	0x3c4060df	0.011741846
161	0xbb79c386	-0.0038110926
162	0x3bcf8f65	0.0063342326
163	0x3c9fb7dd	0.019496853
164	0x3b22e690	0.0024856664
165	0xbca26abe	-0.01982629
166	0xbd6694d4	-0.056294277
167	0x3b88e362	0.004177497
168	0x3cd83d34	0.026396371
169	0x3cd59e4a	0.026076455
170	0x3d52b4cc	0.051441953
171	0xbd9736f9	-0.07383532
172	0x3b5726e7	0.0032829584
173	0xbda1998d	-0.078906156
174	0x3d1282a9	0.03576914
175	0xbda58a1d	-0.08082984
176	0xbd6cde58	-0.05782923
177	0x3d2a1dcc	0.041532323
178	0xbc8b438d	-0.016999984
179	0xbd2f48f3	-0.04279418
180	0xbd3193e9	-0.04335395
181	0x3cd33f1a	0.025786925
182	0x3d976f7e	0.07394312
183	0x3d78c380	0.06073332
184	0x3d0123e8	0.031528383
185	0xbc83c9c8	-0.016087428
186	0x3d552af0	0.0520429
187	0x3ce7fb83	0.028318172
188	0xbd402d16	-0.046917997
189	0x3cdbf35d	0.026849443
190	0x3da15c34	0.078789145
191	0x3cde5500	0.02714014
192	0xbc14c88c	-0.009081017
193	0xbd4116cf	-0.047140893
194	0x3d1ba9b0	0.038003623
195	0xbd90c609	-0.07069022
196	0x3d505a85	0.050867576
197	0x3ccff631	0.025385948
198	0x3d9ee964	0.077593595
199	0xbd7ed675	-0.06221624
200	0xbd9688e5	-0.07350329
201	0x3cd802c4	0.026368506
202	0x3d87efa4	0.06637505
203	0x3cc0b771	0.023524972
204	0xbcf803ad	-0.03027519
205	0x3d1ec050	0.038757622
206	0x3d838618	0.06422061
207	0xbd92bdc0	-0.07165098
208	0xbd2297be	-0.039695494
209	0xbd6a9fe9	-0.05728141
210	0xbd8a17b5	-0.06742803
211	0xbd143972	-0.036187597
212	0xbc13d694	-0.009023327
213	0x3cbaf22c	0.022820555
214	0x3d21dc2f	0.039516624
215	0x3d672788	0.056434184
216	0xbd77917f	-0.06044149
217	0xbbf1fa74	-0.0073845927
218	0xbd597a96	-0.053095423
219	0x3d7c31a4	0.06157078
220	0x3d865926	0.065599725
221	0xbcc505da	-0.024050642
222	0x3ca19cfc	0.019728176
223	0x3b0e218a	0.0021687471
224	0x3d1ee283	0.038790237
225	0xbcefebc1	-0.02928722
226	0x3c4277f6	0.011869421
227	0x3d425d70	0.04745239
228	0x3d9a7376	0.07541554
229	0x3be0fce5	0.006866085
230	0x3d5e71bb	0.05430768
231	0x3a7af29b	0.0009572894
232	0x3d674731	0.056464378
233	0xbd83be56	-0.06432788
234	0x3d9034ab	0.070412956
235	0x3d8eec93	0.06978717
236	0x3c439044	0.011936251
237	0x3d2eb73f	0.042655226
238	0xbba0ab43	-0.0049032285
239	0xbccb2062	-0.024795715
240	0x3be69327	0.007036585
241	0x3cb81e79	0.022475468
242	0x3d7b2384	0.061313167
243	0x3d89ef38	0.067350805
244	0x3d8fadba	0.070155576
245	0x3d6d91c0	0.058000326
246	0x3c5ed3f7	0.013600341
247	0xbd082116	-0.03323468
248	0xbd972170	-0.073794246
249	0x3ccd0ec0	0.025031447
250	0xbd264222	-0.040590413
251	0xbd3cb54f	-0.046071347
252	0x3d34ecfc	0.04417132
253	0x3d463ce3	0.04839791
254	0x3da1d379	0.07901663
255	0xbd11660a	-0.035497703

conv2.bias f4 [16]
0	0xbd6c573c	-0.05770038
1	0x3c267349	0.010159322
2	0xbbcd2ac7	-0.006261203
3	0x3d152d53	0.036420178
4	0x3d49be3d	0.04925369
5	0x3d9e3c0f	0.07726299
6	0xbd6aa823	-0.057289254
7	0xbcec7614	-0.028864898
8	0x3d912a97	0.070882015
9	0x3d51506d	0.05110209
10	0xbba58cd4	-0.0050521884
11	0xbd31823b	-0.043337088
12	0xbd14ccc0	-0.036328077
13	0x3d167828	0.036735684
14	0x3d4919db	0.049096923
15	0x3c554607	0.013017184

fc1.weight f4 [120, 400]
0	0xbc806ef7	-0.015677912
1	0x3c3f0580	0.011659026
2	0xbd207393	-0.03917272
3	0xbd36d5b8	-0.04463741
4	0x3d2706e0	0.04077804
5	0xbc645bfa	-0.013937945
6	0x3c706afa	0.014673943
7	0x3d3d62c5	0.046236772
8	0xbc8cd69d	-0.01719218
9	0xbd3fc3df	-0.046817657
10	0xbc0e395a	-0.008680666
11	0x3cdd4007	0.02700807
12	0x3d005bd2	0.031337567
13	0xbd261f15	-0.040556986
14	0xbd1138d0	-0.03545457
15	0x3b33f880	0.002746135
16	0xbc0b636d	-0.008507592
17	0x3cd6f26a	0.026238639
18	0x3d44e23a	0.04806731
19	0xbb09959a	-0.002099371
20	0x3d1e3550	0.03862506
21	0x3d47d4b0	0.04878682
22	0x3d3384ab	0.043827694
23	0xbd23e1d8	-0.040010303
24	0x3d00d54d	0.03145342
25	0x3d36e257	0.04464945
26	0x3c7ff0f3	0.015621412
27	0x3c5561e7	0.01302383
28	0x3c26fdd3	0.010192352
29	0x3d22c048	0.039734155
30	0xbd450ab3	-0.048105907
31	0xbced3add	-0.028958732
32	0xbcfc2b60	-0.030782402
33	0xbcea5757	-0.0286061
34	0xbc2d0fcd	-0.010562849
35	0xb9c4eb33	-0.0003755927
36	0x3c224b53	0.009905654
37	0xbcbcb53a	-0.023035634
38	0x3cf4a1f3	0.02986238
39	0x3d26ca45	0.040720243
40	0x3d2954e7	0.041340735
41	0xbc75e100	-0.015007257
42	0xbcefbb5a	-0.02926414
43	0x3b32851a	0.002723998
44	0xbd302002	-0.042999275
45	0x3ca62867	0.020282937
46	0xbc93a1d0	-0.018021494
47	0x3cf46923	0.02983529
48	0xbcb3a353	-0.021928465
49	0xbd35c60f	-0.044378337
50	0x3be3e1cd	0.006954408
51	0xbcd741c7	-0.026276482
52	0x3d454c3f	0.048168417
53	0x3c680973	0.014162409
54	0xbcf6fae7	-0.030148936
55	0xbbfc651a	-0.007702482
56	0xbcfb3d0a	-0.030668754
57	0xbcf97a97	-0.030453963
58	0x3d1bf227	0.03807273
59	0xbd3d3bb0	-0.0461995
60	0xbd232b2f	-0.039836105
61	0x3c1e4e07	0.009662158
62	0x3d19b96f	0.03753036
63	0xbc82cd80	-0.01596713
64	0x3c3adb9a	0.011404896
65	0xbd1b86bb	-0.037970286
66	0x3d35e9e7	0.04441252
67	0x3b7a9500	0.0038235784
68	0xbd2ef720	-0.042716146
69	0x3cc25797	0.023723407
70	0xbc39114d	-0.011295629
71	0x3c9d72d7	0.019219799
72	0x3d2e2d63	0.042523753
73	0xbc8f69e3	-0.017506545
74	0xbd20bebd	-0.039244402
75	0xbcfb1f63	-0.030654615
76	0x3b9ae1a7	0.004726607
77	0x3d4ab515	0.0494891
78	0xbd340443	-0.043949377
79	0x3b92b4cd	0.0044771195
80	0xbc8ff433	-0.017572498
81	0xbd33349d	-0.043751348
82	0xbbb0354d	-0.0053774477
83	0x3cca2e40	0.024680257
84	0x3d48441d	0.048893083
85	0xbcdb8923	-0.02679879
86	0x3c8da183	0.017288929
87	0xb900e800	-0.00012293458
88	0x3c9b74f3	0.018976664
89	0x3bd87480	0.0066056848
90	0x3ca6d58a	0.020365495
91	0x3cb10460	0.021608531
92	0xba86b59a	-0.001027751
93	0xbbeafba7	-0.0071711126
94	0xbcccce9a	-0.025000859
95	0xbaa9dc9a	-0.0012959421
96	0xbc854ec3	-0.016272908
97	0x3d0a966a	0.033834852
98	0xbd3dee9b	-0.04637013
99	0x3d3604d5	0.044438202
100	0xbb8d5067	-0.004312563
101	0xbbf92680	-0.0076034665
102	0x3d0599bd	0.03261732
103	0x3c4b4aa0	0.012407929
104	0x3d048a8f	0.032358702
105	0x3d2fa21b	0.042879205
106	0x3c91f05a	0.017814804
107	0xbb56fde7	-0.0032805146
108	0xbae93300	-0.0017791688
109	0xbcb02e17	-0.021506352
110	0xbd4002ca	-0.04687766
111	0x3cc6001d	0.024169976
112	0x3c67a90d	0.014139426
113	0x3d3065f2	0.043065973
114	0x3c5ce140	0.013481438
115	0xbc86be40	-0.01644814
116	0x3c105cf3	0.008811223
117	0x3d3fc420	0.0468179
118	0x3d1222ab	0.035677593
119	0x3b9fa1f3	0.004871601
120	0x3ce72ba0	0.028219044
121	0x3d221067	0.039566424
122	0x3d0ae2bb	0.033907633
123	0x3ced52f7	0.028970225
124	0xbcdb5fb7	-0.026779039
125	0xbc69c780	-0.014268756
126	0x3d228e37	0.039686408
127	0xbd06b833	-0.03289051
128	0x3d1316ef	0.035910543
129	0x3d206a1a	0.039163686
130	0x3cacd47a	0.02109741
131	0x3cefd580	0.02927661
132	0xbb5ff64d	-0.0034173906
133	0x3d4332d7	0.047655907
134	0x3c467f93	0.012115377
135	0x3cbe6d5a	0.023245502
136	0xbd08c198	-0.03338775
137	0x3cbfc1aa	0.023407776
138	0x3ca8bb23	0.020597046
139	0xbccd0ed0	-0.025031477
140	0xbd20cfba	-0.039260603
141	0xbccab067	-0.024742318
142	0x3cfc5190	0.03080061
143	0xbca0c303	-0.019624239
144	0xbd27fe93	-0.041014265
145	0x3c36b867	0.011152363
146	0x3ce0a3fd	0.027421946
147	0x3c15665a	0.009118641
148	0x3b201733	0.002442789
149	0x3b1534cd	0.0022767067
150	0x3d0baeda	0.0341023
151	0x3d04e620	0.032446027
152	0xbd2601cf	-0.04052907
153	0xbd367902	-0.044548996
154	0x3be5edda	0.0070168795
155	0x3c929e8a	0.017897863
156	0x3c149273	0.009068119
157	0x3cc43edd	0.023955757
158	0x3d4671aa	0.048448242
159	0xbd2843b7	-0.041080203
160	0xbcbfca43	-0.023411876
161	0xbc4acac0	-0.012377441
162	0xbd0042b7	-0.031313624
163	0x3d079318	0.033099264
164	0x3c5ca5e7	0.013467289
165	0xbcf074ea	-0.029352624
166	0xbb4b3e67	-0.0031012536
167	0x3d2a4062	0.041565306
168	0x3d114bd5	0.03547271
169	0xbcee8627	-0.029116703
170	0x3cabaa7d	0.020955319
171	0x3d02bf5d	0.03192078
172	0xbd265182	-0.040605076
173	0x3c8050f3	0.0156636
174	0x3ce158c3	0.027508145
175	0x3c1ebd27	0.009688652
176	0xbd34ca8f	-0.044138487
177	0x3b865280	0.0040991902
178	0xbd06f7af	-0.032951053
179	0xbcfff673	-0.031245446
180	0x3d3d667d	0.04624032
181	0xbc4b420d	-0.012405884
182	0xbd1d5fef	-0.038421568
183	0x3d40266d	0.046911646
184	0xbc8e6490	-0.017381936
185	0xbd1c6f5a	-0.03819213
186	0xbc12495a	-0.008928621
187	0xbd1d91bd	-0.038469065
188	0xbd35745f	-0.044300433
189	0x3d00f9e7	0.031488325
190	0x3cadb2e7	0.021203471
191	0xbd2a37af	-0.04155701
192	0x3d32e94b	0.043679517
193	0xbd3bb628	-0.045828015
194	0x3d2e5eb8	0.0425708
195	0xbc3deee0	-0.011592597
196	0x3c1e4dfa	0.009662146
197	0xbd0df472	-0.03465695
198	0xbb9e1db3	-0.0048253178
199	0x3d374f3b	0.044753294
200	0x3ca10743	0.019656783
201	0xbcd28dfa	-0.025702465
202	0xbd42d82d	-0.047569443
203	0xbb8ba733	-0.004261875
204	0xbd054032	-0.032531925
205	0x3d441b7d	0.047877777
206	0x3d2a2050	0.04153472
207	0x3d43abf0	0.047771394
208	0xbd34f27d	-0.044176567
209	0x3c86f26a	0.016473014
210	0xbcacd8f0	-0.021099538
211	0xbd22d8a8	-0.0397574
212	0x3cbd6c9a	0.023123074
213	0xbd4541db	-0.048158508
214	0x3ca7e59d	0.02049523
215	0xbd0b5aa3	-0.034021985
216	0xbc3f1147	-0.011661834
217	0x3d3ff09b	0.04686032
218	0x3c53a447	0.012917585
219	0x3ac1d000	0.001478672
220	0xbc9fa877	-0.01948951
221	0x3d21ef2d	0.039534736
222	0xbd19d5e8	-0.037557513
223	0xbd4b53f2	-0.049640603
224	0xbc91c813	-0.017795598
225	0x3c9c613d	0.019089336
226	0xbca22dc3	-0.019797212
227	0xbacc4d33	-0.0015586972
228	0x3ce17753	0.027522719
229	0xbd2538f2	-0.04033751
230	0xbd134eaa	-0.03596369
231	0xbd1a3cf5	-0.03765579
232	0x3bb7c733	0.005608463
233	0xbc5aa993	-0.013346094
234	0xbced4690	-0.02896431
235	0xbc991657	-0.01868741
236	0x3b39599a	0.0028282166
237	0x3caef58d	0.021357322
238	0xbc993a0a	-0.018704433
239	0xbd006818	-0.03134927
240	0xbd3441cd	-0.044008065
241	0x3ccb3edd	0.024810249
242	0x3c87d72a	0.01658209
243	0xbd037c32	-0.032100864
244	0x3d2a0e6d	0.041517664
245	0x3cade5a3	0.021227663
246	0xbcc66713	-0.024219071
247	0xbd44ae75	-0.048017938
248	0xbd28b3ab	-0.04118697
249	0x3d240f15	0.040053446
250	0xbd31573b	-0.04329608
251	0x3d04ab07	0.032389667
252	0x3d15279b	0.036414724
253	0xbd38f637	-0.045156684
254	0x3d48d0aa	0.049027123
255	0xbcd2d5f0	-0.025736779

fc1.bias f4 [120]
0	0xbcd8bb80	-0.026456594
1	0x3d47cfa0	0.04878199
2	0x3d14af23	0.036299836
3	0xbd249a8d	-0.040186454
4	0xbd0f9423	-0.035053384
5	0x3d275b30	0.040858448
6	0x3d4cbcad	0.049984623
7	0x3c92f8ea	0.017940957
8	0x3d182cad	0.03715198
9	0x3c9757bd	0.018474454
10	0xbcdc83ca	-0.02691831
11	0xbcb04cf0	-0.021521062
12	0xbcc46ffa	-0.023979176
13	0xbc84d36a	-0.016214091
14	0xbc6b1567	-0.014348364
15	0x3d37643d	0.04477333
16	0xbccfc773	-0.02536366
17	0x3bb27d80	0.0054470897
18	0x3c48f93a	0.0122664515
19	0xbb9f9bcd	-0.004870868
20	0x3c80a387	0.015702976
21	0xbd369cc2	-0.04458309
22	0x3d136c90	0.035992205
23	0xbcfc56b0	-0.030803055
24	0x3ba4c427	0.005028266
25	0x3c74cbda	0.01494118
26	0xbd144f55	-0.03620847
27	0x3cb98227	0.02264507
28	0x3d2fc908	0.042916328
29	0x3c5add8d	0.013358486
30	0x3d1ed755	0.038779575
31	0xbd107be7	-0.035274412
32	0xbd0d4ae7	-0.03449526
33	0xbb4d3f9a	-0.0031318427
34	0x3ca7aa33	0.0204669
35	0x3c24c933	0.010057735
36	0x3d226377	0.03964564
37	0x3cee2fba	0.029075492
38	0x3ccc36f3	0.024928546
39	0xbcc710a3	-0.024299925
40	0xbcc7728a	-0.024346609
41	0x3d206fdf	0.03916919
42	0x3be71bb3	0.0070528626
43	0xbc2ec360	-0.010666698
44	0xbd0de72a	-0.034644283
45	0x3c174fda	0.009235347
46	0xbce3c82a	-0.027805407
47	0x3d379712	0.044821806
48	0xbb40031a	-0.0029298724
49	0xbd394c2d	-0.045238663
50	0x3d0edd38	0.03487894
51	0x3c28dd6d	0.010306698
52	0xbc490e9a	-0.012271548
53	0xbd050108	-0.032471687
54	0x3d23e0e2	0.040009387
55	0xbd288725	-0.04114451
56	0xbd198d48	-0.037488252
57	0xbce74ecd	-0.028235817
58	0xbd2b9f2b	-0.04189984
59	0xbce8d6e3	-0.028422778
60	0x3ca345ba	0.01993071
61	0x3ca56497	0.020189567
62	0xbcd81f9a	-0.026382256
63	0xbca300bd	-0.019897813
64	0xbc2e7d60	-0.010650009
65	0xbc8fb2e0	-0.017541349
66	0x3d106dd8	0.035261005
67	0x3c695207	0.014240748
68	0xbcf5655d	-0.02995556
69	0xbd36f58b	-0.04466776
70	0x3cd77aad	0.026303614
71	0x3b8a1b5a	0.0042146863
72	0x3c377960	0.011198372
73	0xbd043532	-0.032277294
74	0x3c2e0020	0.010620147
75	0x3cac1a6a	0.021008689
76	0xbbaebf00	-0.0053328276
77	0x3d309427	0.04311004
78	0xbc24493a	-0.010027224
79	0xbd329637	-0.043600287
80	0x3cf07b10	0.029355556
81	0x3c95b6ca	0.018275637
82	0xbd10dfc2	-0.035369642
83	0xbcc93a57	-0.024563951
84	0x3c884c7a	0.01663803
85	0x3c42c393	0.011887449
86	0x3caa7187	0.020806087
87	0x3d220833	0.0395586
88	0xbb07614d	-0.002065736
89	0xbc464660	-0.01210174
90	0xbd440312	-0.04785449
91	0xbd4a355d	-0.049367297
92	0x3ce22083	0.027603393
93	0xbcc51400	-0.024057388
94	0x3ca86e87	0.020560516
95	0xbcb76710	-0.022388011
96	0x3bec9ef3	0.0072210967
97	0xbd39ba2f	-0.045343574
98	0x3cfecdda	0.031104017
99	0x3c81c8c3	0.015842801
100	0xbcbaab3a	-0.022786725
101	0x3d33e325	0.043917794
102	0xbc012033	-0.007881212
103	0x3c01d620	0.007924587
104	0x3cc2db70	0.023786277
105	0x3c880040	0.016601682
106	0xbca230da	-0.019798685
107	0x3c4a67da	0.012353862
108	0xbd23ee37	-0.0400221
109	0xbce53cc3	-0.027983075
110	0x3cebf2d7	0.028802318
111	0xbd47aefd	-0.048750866
112	0xbaa7c767	-0.0012800515
113	0x3d448f85	0.047988433
114	0xbcceed6d	-0.025259698
115	0xbc820a8d	-0.015874172
116	0xbd23bd1f	-0.03997528
117	0xbd486012	-0.048919745
118	0xbc497d60	-0.012297958
119	0xbc919b60	-0.017774284

fc2.weight f4 [84, 120]
0	0x3db3364d	0.087505914
1	0x3d5438e8	0.051812083
2	0xbda82633	-0.08210411
3	0x3d86b347	0.06577163
4	0x3d9d17e5	0.07670573
5	0x3cabe66d	0.020983899
6	0x3ad6d244	0.0016389568
7	0xbd8d8f5b	-0.069121085
8	0xbd057c3d	-0.032589186
9	0xbd9e369c	-0.0772526
10	0x3d3956b5	0.045248706
11	0xbcd12794	-0.025531568
12	0xbd7b0237	-0.06128141
13	0x3c933f1c	0.017974429
14	0x3d4344be	0.04767298
15	0x3daacfbb	0.08340403
16	0xbd4e9e3d	-0.050443877
17	0x3d9cc6c8	0.07655102
18	0x3d182190	0.037141383
19	0xbce6101b	-0.028083852
20	0x3da83644	0.08213475
21	0xbd1aebcd	-0.037822533
22	0x3d899aa2	0.06718947
23	0xbcdaea9b	-0.026723197
24	0xbd9b4711	-0.07581914
25	0x3d627716	0.05528935
26	0x3d9bc25a	0.07605429
27	0xbdb6431a	-0.08899517
28	0xbd819d41	-0.06328822
29	0xba5b3ef5	-0.00083635683
30	0x3dabaf69	0.08383066
31	0xbce75201	-0.028237345
32	0x3c23d078	0.009998433
33	0x3c83b7ec	0.016078912
34	0xbdad80aa	-0.08471806
35	0x3c91b5aa	0.01778682
36	0x3c74b027	0.014934576
37	0xbda55f2d	-0.08074794
38	0xbda4f3d1	-0.08054317
39	0xb9c666ad	-0.00037842002
40	0x3d291a85	0.041285057
41	0xbd88be38	-0.06676906
42	0xbd1ff824	-0.039055005
43	0xbc93dabb	-0.018048635
44	0xbbc46891	-0.0059939106
45	0xbd8a86d1	-0.067639954
46	0x3d54b905	0.05193426
47	0xbd8ffde2	-0.07030846
48	0x3c3926a2	0.011300715
49	0xbd9af006	-0.07565312
50	0x3a016d90	0.00049372856
51	0x3d97f714	0.07420173
52	0x3d52e7d2	0.051490612
53	0xbd09f8b3	-0.033684444
54	0x3d8aa307	0.06769376
55	0xbd888f83	-0.06667998
56	0xbd170b74	-0.036876157
57	0xbd73c95e	-0.05951821
58	0x3d349c3d	0.044094313
59	0xbd1eba8e	-0.03875213
60	0x3c1770a0	0.0092431605
61	0x3d43898d	0.0477386
62	0x3d77eb2b	0.060527008
63	0xbca12131	-0.019669147
64	0x3c82b69b	0.015956214
65	0xbc75a6a1	-0.014993341
66	0xbd99f0fb	-0.075166665
67	0x3d967a49	0.07347543
68	0x3d5c784f	0.053825673
69	0xbd5c071a	-0.05371771
70	0x3d9c8e33	0.0764431
71	0xbd8ca2f8	-0.06867021
72	0xbd6e09dd	-0.058114875
73	0xbce15107	-0.027504457
74	0x3d3dbc18	0.04632196
75	0x3d847f8d	0.06469641
76	0xbb8f4eea	-0.004373421
77	0xbd8b1d6e	-0.06792723
78	0x3d2c148c	0.042011783
79	0xbdaca2ba	-0.08429475
80	0x3d6cad78	0.05778262
81	0x3d9ad434	0.07560006
82	0xbd10ef8f	-0.03538471
83	0x3d096057	0.033539142
84	0xbd14fe9f	-0.036375638
85	0x3c5464b1	0.01296346
86	0x3ac6647c	0.0015136148
87	0x3da72d1a	0.08162899
88	0xbd2358c8	-0.03987959
89	0xbcd4dec4	-0.02598513
90	0xbd780c4e	-0.06055861
91	0xbd4107d3	-0.047126602
92	0x3d7bd234	0.061479762
93	0xbce72243	-0.02821458
94	0xbd81eb02	-0.06343652
95	0x3d38d0cc	0.045121
96	0xbd6ae597	-0.05734786
97	0x3d36bd56	0.04461416
98	0x3d94aa14	0.07259002
99	0x3d0d49d7	0.034494247
100	0xbd6e371f	-0.058158036
101	0xbd4ef57a	-0.050527073
102	0xbc8308ca	-0.015995402
103	0xbd47b339	-0.048754904
104	0xbd851505	-0.0649815
105	0x3d90e14e	0.070742235
106	0xbd59dc02	-0.05318833
107	0x3d23cc48	0.03998974
108	0x3d38d601	0.045125965
109	0x3db96e05	0.09054188
110	0x3d2f0cd5	0.042736847
111	0xbdb9bb00	-0.090688705
112	0xbd004d8a	-0.031323947
113	0x3bceb6c3	0.006308408
114	0x3b107f8a	0.0022048675
115	0xbcede85a	-0.029041458
116	0xbd3427ff	-0.043983456
117	0xbd013251	-0.031542126
118	0xbd9a696a	-0.075396374
119	0xbba5373a	-0.005041984
120	0xbd0bfd91	-0.034177367
121	0xbce969f9	-0.028492915
122	0x3ce3eca8	0.027822807
123	0xbd98152e	-0.07425915
124	0x3ba2018d	0.0049440325
125	0x3d826506	0.06366925
126	0xbb8fe52c	-0.004391333
127	0xbdb2881d	-0.08717368
128	0xbc235c37	-0.009970716
129	0xbd35db81	-0.04439879
130	0xbd8387a5	-0.064223565
131	0x3d24eaa3	0.04026283
132	0xbc33ab46	-0.010966128
133	0xbcbdb77e	-0.023158785
134	0x3bf02cde	0.0073295673
135	0xbda3f2b3	-0.080052756
136	0x3bb1af43	0.005422504
137	0xbd7737f6	-0.060356103
138	0xbd8ed67d	-0.06974504
139	0x3d3b3966	0.045709036
140	0xbd500857	-0.050789203
141	0xbd9137ed	-0.07090745
142	0xbd4f89a5	-0.050668377
143	0x3c1ead92	0.009684937
144	0xbd840efe	-0.06448172
145	0xbbbd904f	-0.005785025
146	0xbdbad12c	-0.091219276
147	0xbd138422	-0.036014684
148	0x3c715f5d	0.014732209
149	0x3c9190e0	0.017769277
150	0x3db0f66e	0.08640753
151	0x3c750120	0.0149538815
152	0x3dad0caf	0.08449685
153	0xbb0290f3	-0.0019922822
154	0x3c2cdbb1	0.010550425
155	0xbdac9dca	-0.084285334
156	0x3daef303	0.085424446
157	0x3ce26d23	0.027639931
158	0x3d1c0cd4	0.03809817
159	0xbdbae82a	-0.09126313
160	0xbda68c51	-0.08132232
161	0x3d915387	0.0709601
162	0x3d3a50c9	0.0454872
163	0xbd600862	-0.054695494
164	0xbdaf3a9a	-0.08556099
165	0x3d79eeb0	0.061018646
166	0x3c2e43c6	0.010636276
167	0x3d0dc04f	0.034607228
168	0x3d1e4240	0.0386374
169	0x3cd2cd18	0.025732562
170	0xbcaa55f3	-0.020792937
171	0x3d295286	0.041338466
172	0xbd7df361	-0.061999682
173	0xbdb29aad	-0.08720908
174	0x3da7fcd4	0.0820252
175	0xbcea8cb9	-0.028631555
176	0xbbe52c4c	-0.006993806
177	0x3d8fe06d	0.07025228
178	0x3c2cb104	0.010540251
179	0x3d6b42a9	0.05743662
180	0xbcb4926a	-0.022042472
181	0xbc396873	-0.011316407
182	0xbd131065	-0.035904307
183	0x3c104bdf	0.008807152
184	0xbdb1b0ef	-0.086763255
185	0x3d179bf0	0.037013948
186	0x3cfc17de	0.0307731
187	0x3d874a1f	0.06605934
188	0x3d836595	0.064158596
189	0x3d814d26	0.06313543
190	0xbda07d26	-0.0783637
191	0xbb267389	-0.0025398454
192	0x3d9f7b1a	0.07787152
193	0xbd99c20f	-0.07507717
194	0xbca4425f	-0.02005118
195	0x3d373c34	0.04473515
196	0x3d14de14	0.036344603
197	0x3d14fed7	0.036375847
198	0xbc286bab	-0.010279576
199	0x3c9151e3	0.017739242
200	0x3c667c5f	0.014067738
201	0x3d529b69	0.051417742
202	0x3d508b39	0.050914023
203	0x3c361504	0.011113409
204	0xbd67551c	-0.05647765
205	0x3aedba2f	0.0018137152
206	0x3b80e12a	0.0039330916
207	0x3d9caff3	0.07650747
208	0x3ca602b5	0.020264963
209	0x3d1f6ce5	0.03892221
210	0x3d535d02	0.05160237
211	0xbc3570a7	-0.011074222
212	0xbd596b9f	-0.05308115
213	0xbd023fc9	-0.03179911
214	0xbb709cb2	-0.0036714491
215	0x3d96d818	0.07365435
216	0xbd9351bc	-0.07193324
217	0xbcfa33b4	-0.030542232
218	0x3cc0b900	0.023525715
219	0xbd976ee1	-0.07394195
220	0x3d05d810	0.032676756
221	0xbcfde238	-0.030991659
222	0x3d3f98c2	0.04677654
223	0xbd6c0505	-0.057621974
224	0x3ceb3c45	0.028715262
225	0x3bd60810	0.006531723
226	0xbd83a625	-0.06428174
227	0x3d887f1a	0.06664868
228	0xbc7a44ef	-0.015275224
229	0x3c31badb	0.0108477725
230	0x3c86ed87	0.016470684
231	0x3d0ba017	0.03408822
232	0x3cbc1fa5	0.022964308
233	0x3b76c50a	0.0037654066
234	0x3d233b89	0.0398517
235	0xbb19600a	-0.002340319
236	0xbda1873e	-0.078871235
237	0xbda68f8a	-0.08132847
238	0x3d62e4f0	0.055394113
239	0x3c2e1488	0.010625012
240	0x3d20e67b	0.039282303
241	0xbd44db4a	-0.048060693
242	0x3cd819c2	0.02637947
243	0x3d6ec7bb	0.058295947
244	0x3db62e16	0.08895509
245	0xbd98a13e	-0.074526295
246	0x3dabb357	0.08383816
247	0x3d8fc37f	0.0701971
248	0xbd8f194f	-0.06987249
249	0xbb9fbd83	-0.0048748865
250	0x3b937466	0.0044999598
251	0xbd788dd4	-0.060682133
252	0x3d76bf2d	0.060240913
253	0xbc923828	-0.017849043
254	0xbd81ff1f	-0.063474886
255	0xbd40a761	-0.047034625

fc2.bias f4 [84]
0	0xbd9666d2	-0.0734383
1	0x3cef8483	0.029237991
2	0x3d6b516a	0.05745069
3	0xbb8e839e	-0.004349186
4	0xbdb322b7	-0.08746856
5	0xbd88dd84	-0.06682876
6	0x3d3aff14	0.045653418
7	0xbd59fe0c	-0.053220794
8	0xbd77fca3	-0.060543668
9	0x3b735c85	0.0037134003
10	0xbd066d45	-0.03281905
11	0x3c4b7c9d	0.012419847
12	0x3cff547b	0.031168213
13	0xbbd7d888	-0.006587092
14	0x3d8c0d3c	0.06838462
15	0xbd92099a	-0.071307376
16	0x3db9da9d	0.090749
17	0xbd52a68f	-0.051428374
18	0xbd0c96e8	-0.034323603
19	0xbcc18362	-0.023622219
20	0x3b2371ce	0.002493966
21	0x3cbe4b5b	0.023229292
22	0xbcbce537	-0.023058517
23	0x3d16a545	0.036778707
24	0x3d9f0121	0.07763887
25	0x3cdbe412	0.02684215
26	0xbd08b97e	-0.033380024
27	0x3a9a4387	0.0011769392
28	0xbc538b04	-0.012911562
29	0x3db26ade	0.087117895
30	0x3c2cbe1d	0.010543373
31	0xbdba03bd	-0.09082744
32	0xbd0fdda7	-0.035123494
33	0xbd1b161d	-0.037862886
34	0xbbe1dc55	-0.0068927207
35	0xbc40c13d	-0.011764822
36	0xbd21e75a	-0.039527275
37	0x3d8d6026	0.069031045
38	0xbc62ad78	-0.0138353035
39	0x3d3540d1	0.044251267
40	0x3d3bcb75	0.04584833
41	0xbdb8c376	-0.09021656
42	0x3c80dbc7	0.015729798
43	0xbc4a68ed	-0.012354118
44	0xbd9b0817	-0.075699024
45	0xbc980292	-0.018555913
46	0xbd22b788	-0.03972581
47	0xbd47fb4f	-0.04882365
48	0x3d1339da	0.035943843
49	0xbda96332	-0.08270873
50	0x3bf0d995	0.0073501565
51	0x3d45fc3c	0.048336253
52	0xbd554545	-0.052068014
53	0xbdb64b19	-0.089010425
54	0xbd325ce7	-0.04354563
55	0x3d3e975a	0.04653106
56	0x3cb8709b	0.022514632
57	0x3cfa7813	0.030574834
58	0x3d5bdafa	0.05367563
59	0x3c577c84	0.013152245
60	0xbd925e93	-0.07146945
61	0x3cd5430b	0.026032945
62	0xbcd76768	-0.026294425
63	0x3d13c4c4	0.036076322
64	0x3af0c21f	0.00183684
65	0x3c26eb5a	0.010187948
66	0x3daf2545	0.085520305
67	0xbcf36f7c	-0.029716246
68	0xbd65b517	-0.056080904
69	0xbdafc3b6	-0.08582251
70	0xbd52049b	-0.051273923
71	0xbd8eb2ee	-0.06967722
72	0xbdb9ab47	-0.09065872
73	0x3d374797	0.044746008
74	0xbd4e531f	-0.05037224
75	0x3d3efbf4	0.046627
76	0x3d130553	0.03589375
77	0xbd89222a	-0.066959694
78	0x3d250f9f	0.0402981
79	0xbd75f5ec	-0.060048983
80	0xbdad93b1	-0.084754355
81	0xbc6cd704	-0.014455561
82	0xbbcf6868	-0.006329585
83	0x3d0ca68a	0.03433851

fc3.weight f4 [10, 84]
0	0xbd501ca8	-0.05080858
1	0x3dd9e3a3	0.106391214
2	0xbda44d07	-0.08022504
3	0xbdc78252	-0.097416535
4	0x3da96876	0.082718775
5	0xbd0b1618	-0.033956617
6	0x3cfafe8f	0.030638961
7	0x3dc7766a	0.097393826
8	0xbd75994b	-0.059960645
9	0xbd91a98a	-0.07112415
10	0x3c8ded09	0.017324941
11	0xbd887f28	-0.06664878
12	0x3d0c0cd5	0.034191925
13	0xbdcebc76	-0.1009454
14	0xbb9c95f9	-0.0047786203
15	0xbac72e1a	-0.0015196234
16	0x3d7e38cd	0.06206589
17	0xbda16798	-0.07881087
18	0xbd826042	-0.06366016
19	0x3dcfca64	0.10146025
20	0x3c42151b	0.011845852
21	0xbce06520	-0.02739197
22	0xbd193636	-0.037405215
23	0xbdc379bf	-0.095447056
24	0xbd7f14cb	-0.06227569
25	0x3c6c1760	0.01440987
26	0xbd8d5915	-0.06901757
27	0x3d9f3718	0.0777418
28	0x3d936dd1	0.0719868
29	0xbd5cf1c7	-0.053941514
30	0xbd5d6230	-0.054048717
31	0x3dc05848	0.09391838
32	0x3d4cb93e	0.04998135
33	0xbcc11f9c	-0.023574643
34	0xbdaeb88d	-0.08531294
35	0x3bd937d0	0.006628968
36	0xbc98eff2	-0.018669102
37	0x3da6c42f	0.08142888
38	0x3dd6a1fa	0.10480113
39	0xbd90a218	-0.07062167
40	0x3c8495aa	0.016184647
41	0xbdab1302	-0.08353235
42	0x3d9edc5b	0.07756873
43	0x3dd58a6d	0.10426793
44	0xbd8f8acf	-0.070088975
45	0xbdb3e00a	-0.087829664
46	0x3c7f9ce4	0.0156013705
47	0xbda88405	-0.08228306
48	0xbd9f2ad7	-0.07771843
49	0x3d8f2bed	0.069908
50	0xbdb15920	-0.08659577
51	0xbd90ac0b	-0.070640646
52	0xbd01e3b4	-0.031711295
53	0xbce30574	-0.027712561
54	0x3d313334	0.04326172
55	0x3d79cd73	0.060986947
56	0x3c7fe416	0.015618345
57	0xbddbde0f	-0.10735714
58	0x3db62b4b	0.08894976
59	0x3d8c3cde	0.06847547
60	0x3cdace68	0.02670975
61	0xbd1e6297	-0.03866824
62	0x3da32728	0.07966453
63	0x3ced9cad	0.029005373
64	0x3d4fad0e	0.050702147
65	0x3dd5fe54	0.104489
66	0x3d94000c	0.072265714
67	0xbd58263c	-0.05277084
68	0xbd1499a4	-0.036279336
69	0xbdd7c17c	-0.10534951
70	0xbcc7608a	-0.024338026
71	0xbd9fb258	-0.07797688
72	0xbdccb401	-0.099952705
73	0x3d830487	0.06397348
74	0x3c9a1154	0.01880709
75	0x3d5bc03f	0.053650137
76	0x3d3d8f91	0.046279494
77	0x3d75fde8	0.060056597
78	0xbc896b0b	-0.016774675
79	0x3ce0757e	0.027399775
80	0x3c25a1c1	0.010109366
81	0xbddccd74	-0.107813746
82	0x3c814aa3	0.01578266
83	0xbb416e71	-0.002951529
84	0x3d285aec	0.041102335
85	0xbd070ebe	-0.032973044
86	0xbdd518dc	-0.10405132
87	0x3d5044f9	0.050847027
88	0xbc9d5378	-0.01920484
89	0xbd945d74	-0.07244387
90	0x3dc9480b	0.09828194
91	0x3d230778	0.039802045
92	0xbd6f3efc	-0.058409676
93	0x3d441e36	0.047880374
94	0xbd83e935	-0.06440965
95	0x3cddd58b	0.027079364
96	0x3d2f74a3	0.042835843
97	0xbcc3b9e2	-0.023892347
98	0xbda721c2	-0.08160736
99	0x3d4dc407	0.050235774
100	0x3d1b7675	0.037954766
101	0xbda9fd0a	-0.083002165
102	0x3cf41f9d	0.02980023
103	0x3d20754c	0.039174363
104	0xbad05a21	-0.0015896001
105	0xbd6a7686	-0.05724194
106	0x3ca4527e	0.020058867
107	0x3cc38ccb	0.023870846
108	0xbcd7306d	-0.026268208
109	0xbd4be222	-0.049776204
110	0x3dc20d68	0.09475213
111	0x3d955fd4	0.072936684
112	0x3d3b6488	0.04575017
113	0x394f40a0	0.00019765133
114	0x3cb5e13c	0.022202127
115	0xbdcd6ef1	-0.10030926
116	0x3daf623e	0.0856366
117	0x3d677495	0.056507666
118	0xbdc241f6	-0.09485237
119	0x3b29cbea	0.0025908896
120	0xbd0470d0	-0.03233415
121	0xbda0a13d	-0.07843254
122	0x3c054e47	0.008136339
123	0x3b92f1d2	0.0044843936
124	0x3cb701bf	0.0223397
125	0xbcfdd88d	-0.030987049
126	0xbdae66ba	-0.08515687
127	0xbd40fc49	-0.047115598
128	0x3c950597	0.018191142
129	0x3c4afe93	0.012389797
130	0xbc1d4cbb	-0.0096008135
131	0xbd5486dd	-0.05188643
132	0xbdb7a2ef	-0.08966624
133	0x3d48898f	0.04895931
134	0x3d43dfec	0.04782097
135	0xbd7ae94c	-0.061257645
136	0xbdbd8db7	-0.092555456
137	0xbd102b9e	-0.035197847
138	0xbda0cd9d	-0.078517176
139	0x3c6db130	0.014507577
140	0xbc353b78	-0.011061542
141	0x3c71923e	0.0147443395
142	0xbdaa5777	-0.08317464
143	0xb9bd70bf	-0.00036132892
144	0x3d98f1aa	0.07467969
145	0x3d5f23fa	0.05447767
146	0x3d4dce9c	0.050245866
147	0xbce53480	-0.027979136
148	0xbd584464	-0.052799597
149	0x3cf96787	0.030444873
150	0x3dae51ef	0.08511721
151	0xbd84fd05	-0.06493572
152	0x3dbb3dc7	0.091426425
153	0xbcaa3929	-0.02077921
154	0x3c6ba964	0.014383648
155	0xbd1a456a	-0.037663855
156	0xbd8ee66b	-0.069775425
157	0x3c4e9333	0.012608337
158	0x3dcc0ccd	0.09963379
159	0xbda5ccdc	-0.080957144
160	0x3d84cfe2	0.06484963
161	0xbd92a2cf	-0.071599595
162	0x3bffcec1	0.0078066294
163	0x3dc31677	0.09525769
164	0xbd121a58	-0.035669655
165	0x3dc5bb9a	0.09654923
166	0xbdac1712	-0.08402838
167	0x3dc6fa93	0.09715762
168	0xbd362050	-0.04446441
169	0xbd6af94e	-0.05736666
170	0x3da71fb8	0.08160347
171	0x3c8c2953	0.017109549
172	0xbbffc851	-0.007805862
173	0x3d46a59f	0.048497792
174	0xbc792933	-0.015207577
175	0xbd1127f8	-0.035438508
176	0x3cc670e1	0.024223747
177	0x3d438b8e	0.04774051
178	0xbdba37cd	-0.090926744
179	0x3d47d5d1	0.048787896
180	0xbd56e459	-0.052463863
181	0x3d8caf53	0.06869378
182	0xbdc93d1d	-0.098261096
183	0x3db551f8	0.08853525
184	0xbda0e206	-0.078556105
185	0xbd95abed	-0.07308183
186	0x3cc23b36	0.023709875
187	0xbcdae102	-0.02671862
188	0xbcc5facc	-0.02416744
189	0xbda62b60	-0.08113742
190	0xbdc9c1ba	-0.098514035
191	0x3ae8842b	0.0017739584
192	0x3d3a6309	0.045504604
193	0xbcbf5cb1	-0.023359628
194	0x3db9c621	0.09070993
195	0xbdc56e00	-0.096401215
196	0xbd0c57b2	-0.03426332
197	0x3ce9c269	0.028535085
198	0x3d8013fd	0.062538125
199	0xbdc52146	-0.09625487
200	0xbd3b00af	-0.04565495
201	0x3dbe5053	0.092926644
202	0x3d8c6396	0.06854932
203	0x3cd8b068	0.026451305
204	0xbdb138b7	-0.086533956
205	0x3d17e803	0.037086498
206	0x3dab1750	0.08354056
207	0xbcf2e987	-0.02965237
208	0x3dbb4662	0.09144284
209	0xbdd7f312	-0.10544409
210	0xbd6cac4f	-0.057781514
211	0xbd29531e	-0.041339032
212	0x3c3b9a52	0.011450367
213	0xbd4670c2	-0.048447378
214	0x3d2dbbba	0.042415358
215	0xbdc0a038	-0.09405559
216	0x3d227dd0	0.039670765
217	0x3cda8f6c	0.026679717
218	0x3d1d3a43	0.03838564
219	0x3dd96a35	0.106159605
220	0xbdc19501	-0.09452248
221	0xbd5f6326	-0.054537915
222	0xbd13c3d0	-0.036075413
223	0xbda92501	-0.08259011
224	0x3d9b1eed	0.07574258
225	0x3cfe673d	0.031055087
226	0x3d8ebaf5	0.06969253
227	0xbd20742d	-0.039173294
228	0x3a0c9c5a	0.00053638744
229	0xbdb9fc65	-0.090813436
230	0xbd8dea75	-0.06929485
231	0x3d862756	0.065504715
232	0xbd920cc4	-0.07131341
233	0xbd9ec5ea	-0.07752593
234	0xbd80ed26	-0.062952325
235	0x3d61a14f	0.055085476
236	0x3cdc3993	0.026882922
237	0x3b459fa3	0.0030154965
238	0x3db7f81a	0.089828685
239	0x3dd4bb63	0.10387304
240	0xbce452d6	-0.02787153
241	0x3d8c31a1	0.068454035
242	0xbd5b8653	-0.0535949
243	0x3dcaed81	0.099085815
244	0xbc584b5f	-0.013201564
245	0xbd224777	-0.039618935
246	0x3d9ab5b6	0.0755419
247	0xbd7d4bfb	-0.06184004
248	0xbcbf26f4	-0.023334004
249	0x3c52912b	0.012851994
250	0xbd7736df	-0.060355064
251	0xbd65a19c	-0.056062326
252	0x3dd85238	0.10562557
253	0x3d93d30e	0.0721799
254	0x3ca31ad9	0.019910263
255	0xbd0adb50	-0.03390056

fc3.bias f4 [10]
0	0xbdbc1566	-0.09183769
1	0xbd98729b	-0.07443734
2	0xbc3e038d	-0.011597526
3	0x3d3fc13c	0.046815142
4	0x3c80e3f0	0.01573369
5	0xbd9c2ccb	-0.07625731
6	0x3c0bd944	0.008535687
7	0xbd20eb53	-0.039286923
8	0x3dbd7e80	0.092526436
9	0x3bd0b945	0.006369742
